models/cnn/3dCNN10signs_quantisedf16.tflite (tflite, 600076 bytes, 10 tensors)

arith.constant f2 [64]
-0.1956 -0.1135 -0.1404 -0.0671 -0.02943 -0.10034 -0.03754 -0.02592
-0.1562 -0.05124 -0.04553 -0.1262 -0.05658 -0.02478 -0.0781 -0.0998
-0.2263 -0.08295 -0.1096 -0.01096 -0.1343 -0.00662 -0.05338 -0.1605
-0.004444 -0.3386 -0.000518 -0.1115 -0.1483 -0.0974 -0.3027 -0.1543
-0.01392 -0.0081 -0.0763 -0.1719 -0.0809 -0.02489 -0.02126 -0.2357
-0.3147 -0.02045 -0.1023 -0.1821 -0.02939 -0.0453 0.0001409 -0.1506
-0.168 -0.01487 -0.2115 -0.1252 -0.3242 -0.1204 -0.07935 -0.02637
0.2437 -0.2366 -0.02524 -0.1144 -0.02663 -0.0212 -0.03397 -0.2507
00000000: 42b2 44af 7eb0 4bac 89a7 6cae cea8 a3a6
00000010: 00b1 8faa d4a9 0ab0 3eab 58a6 00ad 63ae
00000020: 3eb3 4fad 04af 9da1 4cb0 c79e d5aa 23b1
00000030: 8d9c 6bb5 3e90 23af bfb0 3cae d8b4 f0b0
00000040: 21a3 26a0 e2ac 80b1 2dad 5fa6 71a5 8bb3
00000050: 09b5 3ca5 8cae d4b1 86a7 cca9 9e08 d2b0
00000060: 60b1 9da3 c5b2 02b0 30b5 b5af 14ad c0a6
00000070: cc33 92b3 76a6 52af d1a6 6da5 59a8 03b4

arith.constant1 f2 [3, 3, 3, 32, 64]
-0.1663 -0.1005 0.1604 0.07556 -0.10516 0.03195 -0.11224 -0.006554
-0.1747 -0.1221 -0.00793 0.01286 0.02725 -0.0404 -0.09106 -0.12396
0.08325 0.001385 -0.1354 -0.1282 -0.12146 0.003632 0.0716 -0.1019
0.07544 0.05713 -0.2179 -0.1295 -0.1548 -0.1288 -0.01984 -0.0274
0.03897 -0.05948 -0.01642 -0.2024 0.0784 0.05807 -0.1542 -0.1735
-0.1021 -0.216 -0.02275 0.007675 -0.0658 0.0313 0.04755 0.03014
0.03305 -0.1855 -0.2683 0.00229 -0.06088 -0.2449 0.0381 -0.0841
-0.2281 -0.2795 -0.1929 -0.1587 -0.1225 -0.04373 -0.1265 -0.1832
-0.1465 -0.2026 -0.3108 -0.2861 0.2686 -0.285 -0.02646 -0.09106
-0.0729 -0.09467 0.1915 -0.0369 -0.1136 -0.2043 -0.0951 -0.3184
-0.0626 -0.2426 -0.2009 0.2812 0.154 0.03357 -0.08795 -0.1559
0.1078 -0.1599 -0.025 0.162 -0.01866 0.07434 -0.2452 0.006382
0.1459 -0.3835 0.1886 -0.1559 -0.07135 -0.054 -0.0781 -0.2244
-0.2208 0.1866 -0.193 -0.11664 0.2308 -0.1179 -0.0935 -0.12305
-0.001672 0.1902 -0.2505 -0.0938 -0.1398 -0.1459 0.1923 -0.0919
0.054 -0.1553 -0.1902 -0.125 -0.0906 -0.279 -0.1632 -0.09503
-0.2502 0.1021 0.3723 -0.0401 0.09656 0.1799 0.0861 0.2468
0.0376 0.1123 -0.1266 0.2444 0.2986 -0.032 0.0243 -0.1054
0.09973 0.1344 0.1265 -0.11847 0.1814 -0.196 0.1509 0.2854
0.05576 -0.1907 -0.3103 -0.05945 0.1847 -0.03323 0.1863 0.0438
-0.1637 -0.004776 0.0359 0.1159 0.3184 0.1059 0.11475 -0.1627
0.04614 -0.1674 0.11194 0.2583 -0.10474 0.1351 -0.3567 0.09106
0.2444 -0.1992 0.10065 0.284 -0.0444 0.11035 -0.09247 0.12366
-0.258 -0.2183 -0.0816 0.09985 0.02617 0.2186 0.1061 0.1454
0.03668 -0.03079 0.006386 -0.0405 0.02751 0.014435 -0.0584 -0.04877
-0.02281 -0.05344 -0.0648 -0.004898 -0.02817 0.00364 0.006218 0.02724
0.001909 -0.01474 0.003876 0.013435 0.02017 0.02036 0.008064 -0.02444
0.01044 0.00872 -0.03964 0.02156 -0.017 -0.05225 -0.03952 -0.0538
-0.04712 0.03552 -0.0125 -0.05295 -0.0281 -0.001213 0.007385 0.011055
0.02661 -0.007393 -0.03397 0.035 -0.03223 -0.04245 -0.0001357 -0.05725
0.01698 0.0329 0.03372 -0.05942 -0.002913 0.02289 -0.003933 0.00798
0.03256 -0.02898 -0.02739 -0.01421 -0.04993 0.03674 0.04672 0.0228
00000000: 52b1 6fae 2231 d62c bbae 1728 2faf b69e
00000010: 97b1 d0af 0fa0 9622 fa26 2ca9 d4ad efaf
00000020: 542d ac15 55b0 1ab0 c6af 701b 952c 86ae
00000030: d42c 502b f9b2 25b0 f4b0 1fb0 14a5 04a7
00000040: fd28 9dab 34a4 7ab2 052d 6f2b efb0 8db1
00000050: 89ae e9b2 d3a5 dc1f 36ac 0228 162a b727
00000060: 3b28 f0b1 4bb4 b118 cbab d6b3 e028 62ad
00000070: 4db3 79b4 2cb2 14b1 d7af 99a9 0cb0 ddb1
00000080: b0b0 7cb2 f9b4 94b4 4c34 8fb4 c6a6 d4ad
00000090: aaac 0fae 2132 b9a8 45af 8ab2 16ae 18b5
000000a0: 02ac c3b3 6eb2 8034 ee30 4c28 a1ad fdb0
000000b0: e62e 1eb1 66a6 2f31 c7a4 c22c d9b3 891e
000000c0: ab30 23b6 0932 fdb0 91ac e9aa 00ad 2eb3
000000d0: 11b3 f931 2db2 77af 6333 8caf fcad e0af
000000e0: d996 1632 02b4 01ae 79b0 abb0 2732 e2ad
000000f0: e92a f8b0 16b2 00b0 ccad 77b4 39b1 15ae
00000100: 01b4 892e f535 22a9 2e2e c231 832d e633
00000110: d028 302f 0db0 d233 c734 19a8 3926 bfae
00000120: 622e 4d30 0c30 95af ce31 46b2 d430 9134
00000130: 232b 1ab2 f7b4 9cab e931 41a8 f631 9b29
00000140: 3db1 e49c 9828 6b2f 1835 c72e 582f 35b1
00000150: e829 5bb1 2a2f 2234 b4ae 5330 b5b5 d42d
00000160: d233 60b2 712e 8b34 afa9 102f ebad ea2f
00000170: 21b4 fcb2 39ad 642e b326 ff32 ca2e a730
00000180: b228 e2a7 8a1e 2fa9 0b27 6423 7aab 3eaa
00000190: d7a5 d7aa 26ac 049d 36a7 741b 5e1e f926
000001a0: d217 8ca3 f01b e122 2a25 3625 2120 42a6
000001b0: 5821 7720 13a9 8525 5aa4 b0aa 0fa9 e3aa
000001c0: 08aa 8c28 66a2 c7aa 32a7 f894 901f a921
000001d0: d026 929f 59a8 7b28 20a8 6fa9 7288 54ab
000001e0: 5924 3628 5128 9bab f799 dc25 079c 1620
000001f0: 2b28 6ba7 03a7 47a3 64aa b428 fb29 d625

arith.constant3 f2 [3, 3, 3, 3, 32]
-0.04092 0.07227 0.011566 -0.05508 0.0417 -0.0838 -0.0885 -0.1682
0.2263 -0.2123 -0.08246 -0.08575 -0.0009527 -0.1226 0.0606 -0.0528
0.005043 0.1328 0.0927 -0.03827 -0.2654 -0.01971 -0.11884 0.01866
-0.0924 -0.2083 0.02802 -0.02835 -0.226 0.0321 -0.2155 -0.02597
-0.03464 -0.0002716 0.09564 -0.0835 0.1142 -0.001408 -0.0656 0.0339
0.1981 -0.251 -0.04233 0.0829 -0.1014 0.003021 0.0161 0.01499
0.1417 0.07574 0.15 0.174 -0.1058 -0.09326 0.1298 -0.1243
-0.0553 -0.1027 0.0324 -0.3281 0.2067 -0.0511 -0.234 -0.0665
-0.1548 -0.04105 -0.0656 -0.09186 0.0309 -0.0631 -0.0829 -0.02966
0.2362 -0.198 0.02675 0.0829 -0.1069 -0.0472 -0.138 -0.0815
0.04846 0.1736 0.0781 0.1398 -0.22 0.03683 -0.09247 -0.1356
-0.0438 -0.02928 0.0438 -0.1428 0.0378 -0.09607 -0.1808 -0.1675
0.04224 0.135 0.02318 0.02222 -0.1606 -0.0911 -0.079 -0.1606
0.0447 -0.3264 0.03656 -0.02336 0.0524 -0.2059 0.0726 -0.1248
-0.06885 0.1163 -0.03087 -0.2135 -0.11975 0.00948 -0.1294 0.05118
-0.01273 -0.10315 -0.02672 -0.03096 -0.1938 -0.00943 -0.1107 -0.1255
-0.0871 0.02853 0.02184 0.0431 -0.0627 -0.0325 -0.09106 -0.04907
0.0349 -0.1978 -0.04764 0.07947 0.00894 -0.02438 -0.1047 -0.0933
0.1815 0.03072 -0.07294 0.09515 -0.1 0.0253 0.05664 -0.1542
-0.02065 -0.11346 -0.03897 -0.2837 -0.03836 -0.02495 -0.1821 0.009445
-0.0875 -0.07007 -0.0704 -0.01657 0.02734 -0.0068 -0.032 -0.04977
0.00814 -0.11774 -0.0755 0.1089 -0.1642 -0.07544 -0.11206 -0.129
0.04996 0.06964 -0.0707 0.1263 -0.02383 -0.0749 -0.155 -0.2676
0.0376 -0.0806 0.01245 -0.1247 0.1487 -0.04385 -0.06635 -0.1633
-0.10645 0.0715 0.12476 0.02885 -0.01651 -0.05725 -0.04153 -0.1908
0.0847 0.0626 -0.0248 -0.0002086 -0.05652 -0.247 -0.01962 -0.03314
-0.08923 0.06097 -0.1577 -0.0784 0.08527 -0.08026 -0.1378 0.01953
-0.0874 -0.259 0.04254 -0.1624 -0.0366 0.02444 -0.1633 -0.1198
0.0169 0.01607 0.1436 -0.0703 0.003902 -0.01694 0.04016 0.06018
0.05157 0.002771 -0.02914 0.04858 -0.07733 -0.0773 -0.1207 -0.0607
0.08813 -0.05023 -0.1605 0.1494 0.0802 -0.05096 0.07385 -0.0635
0.03696 -0.0982 0.01828 -0.2751 0.05704 -0.11993 -0.3855 -0.1192
00000000: 3da9 a02c ec21 0dab 5629 5dad aaad 62b1
00000010: 3e33 cbb2 47ad 7dad ce93 d9af c22b c2aa
00000020: 2a1d 4030 ef2d e6a8 3fb4 0ca5 9baf c724
00000030: eaad aab2 2c27 42a7 3bb3 1c28 e5b2 a6a6
00000040: 6fa8 738c 1f2e 58ad 4f2f c495 33ac 5728
00000050: 5732 04b4 6ba9 4e2d 7dae 301a 1f24 ad23
00000060: 8930 d92c cd30 9131 c5ae f8ad 2730 f5af
00000070: 14ab 93ae 2628 40b5 9d32 8aaa 7db3 42ac
00000080: f4b0 41a9 33ac e1ad e927 0aac 4ead 98a7
00000090: 8f33 56b2 d926 4e2d d7ae 0baa 6ab0 37ad
000000a0: 342a 8e31 002d 7930 0ab3 b728 ebad 57b0
000000b0: 9ba9 7fa7 9b29 92b0 d728 26ae c9b1 5cb1
000000c0: 6829 5230 ef25 b025 24b1 d5ad 0ead 24b1
000000d0: b929 39b5 ae28 fba5 b52a 97b2 a52c fdaf
000000e0: 68ac 712f e7a7 d5b2 aaaf db20 24b0 8d2a
000000f0: 85a2 9aae d7a6 eda7 34b2 d4a0 16af 04b0
00000100: 93ad 4e27 9725 8429 03ac 29a8 d4ad 48aa
00000110: 7828 54b2 19aa 162d 9420 3ea6 b3ae f9ad
00000120: cf31 dd27 abac 172e 66ae 7a26 402b efb0
00000130: 49a5 43af fda8 8ab4 e9a8 63a6 d4b1 d620
00000140: 9aad 7cac 81ac 3ea4 0027 f79e 19a8 5faa
00000150: 2b20 89af d5ac f82e 41b1 d4ac 2caf 21b0
00000160: 652a 752c 86ac 0b30 1aa6 cbac f6b0 48b4
00000170: d028 29ad 6022 fbaf c230 9da9 3fac 3ab1
00000180: d0ae 932c fc2f 6327 3aa4 54ab 51a9 1bb2
00000190: 6c2d 022c 59a6 d68a 3cab e7b3 06a5 3ea8
000001a0: b6ad ce2b 0cb1 05ad 752d 23ad 69b0 0025
000001b0: 98ad 25b4 7229 32b1 afa8 4226 3ab1 abaf
000001c0: 5424 1d24 9830 80ac fe1b 56a4 2429 b42b
000001d0: 9a2a ad19 76a7 382a f3ac f2ac baaf c5ab
000001e0: a42d 6eaa 23b1 c830 222d 86aa ba2c 10ac
000001f0: bb28 49ae ae24 67b4 4d2b adaf 2bb6 a1af

arith.constant4 f2 [3, 3, 3, 64, 128]
-0.02147 0.04623 -0.00754 -0.01866 0.006355 -0.03705 0.00848 -0.2832
0.02554 0.1698 -0.1213 -0.02145 0.09 0.02745 -0.005848 0.3428
-0.02904 0.00598 -0.3542 -0.03882 -0.06238 -0.03818 0.2236 -0.03735
0.02283 -0.03625 -0.498 0.003742 0.2104 0.006317 -0.03366 0.02061
0.02956 -0.02072 0.3535 -0.007725 -0.0534 0.0337 0.01552 0.0788
0.0878 -0.05722 -0.01422 -0.0771 -0.03204 -0.1896 -0.05356 0.336
0.0574 0.01166 -0.0942 -0.0664 0.204 -0.006084 0.02765 -0.0605
-0.1327 0.0004437 -0.2761 -0.03992 0.01933 0.02248 -0.2408 0.2042
-0.069 -0.02345 -0.1205 -0.0781 -0.428 -0.02205 0.1997 0.02473
0.02776 -0.05457 -0.1547 -0.117 -0.0334 -0.001968 -0.04034 0.01814
-0.05087 -0.0843 0.007584 -0.0315 0.015495 0.01387 0.2402 -0.04395
-0.0306 -0.02802 0.1232 0.01949 -0.0541 8.82e-05 -0.2056 0.0214
-0.1615 0.001072 -0.0347 0.01305 -0.03897 0.2666 -0.289 0.05292
-0.0909 0.388 0.0002006 0.281 -0.0358 -0.01516 -0.2235 -0.04367
-0.04062 0.01185 -0.02963 -0.0395 -0.0222 -0.08417 0.08417 0.2507
-0.0008984 -0.4666 0.2124 -0.005863 0.01443 -0.01212 -0.1556 -0.01625
-0.03323 0.001758 0.006977 -0.03156 0.04373 -0.01363 0.132 0.03156
-0.0244 0.07837 0.01805 -0.05237 0.009834 0.0965 0.00483 -0.3198
-0.0176 -0.03558 0.00996 -0.00933 0.03458 0.00506 0.2157 -0.0765
-0.03375 0.02527 -0.1681 -0.0398 0.0195 -0.08453 -0.0405 -0.008644
-0.0217 -0.000593 -0.2169 -0.06476 -0.002085 -0.07886 0.012665 0.11035
-0.2107 -0.0316 0.06366 -0.11395 -0.01938 0.0669 -0.0772 -0.3835
0.174 -0.0406 0.1775 -0.007725 -0.0922 0.02588 -0.01295 -0.007153
0.2295 -0.01633 -0.1412 0.012436 0.01869 -0.1731 -0.1744 0.1831
-0.04828 -0.0942 0.03842 0.05856 0.05008 -0.0177 -0.0921 0.01863
-0.02507 -0.00902 -0.1694 -0.07086 -0.0649 0.0252 -0.1194 -0.02379
-0.02243 -0.05515 -0.01869 -0.00275 0.01379 -0.01402 -0.175 0.05002
-0.0396 0.003328 -0.0337 -0.03467 -0.0467 -0.02547 -0.05505 0.05792
0.1061 -0.03583 0.003716 0.01081 -0.083 -0.02538 -0.2559 -0.001184
-0.128 -0.1713 0.01525 0.1193 0.0236 -0.01438 -0.0984 -0.06177
-0.01727 0.02106 -0.041 -0.011345 0.134 -0.0694 0.2257 0.0112
-0.03012 -0.215 -0.03625 -0.008736 -0.04144 -0.01008 -0.06476 0.0207
00000000: 7fa5 eb29 b99f c7a4 821e bea8 5720 88b4
00000010: 8a26 6f31 c3af 7ea5 c32d 0727 fd9d 7c35
00000020: 6fa7 201e abb5 f8a8 fcab e3a8 2833 c8a8
00000030: d825 a4a8 f8b7 aa1b bc32 781e 4fa8 4725
00000040: 9127 4ea5 a835 e99f d6aa 5028 f223 0b2d
00000050: 9f2d 53ab 48a3 efac 1aa8 11b2 dbaa 6035
00000060: 592b f821 07ae 40ac 8732 3b9e 1427 beab
00000070: 3fb0 450f 6bb4 1ca9 f324 c125 b5b3 8932
00000080: 6aac 01a6 b6af 00ad d9b6 a5a5 6432 5526
00000090: 1b27 fcaa f3b0 7daf 46a8 0898 2aa9 a524
000000a0: 83aa 65ad c41f 08a8 ef23 1a23 b033 a0a9
000000b0: d5a7 2ca7 e32f fd24 edaa c805 94b2 7a25
000000c0: 2bb1 6414 71a8 ae22 fda8 4434 a0b4 c62a
000000d0: d1ad 3536 930a 7f34 95a8 c3a3 27b3 97a9
000000e0: 33a9 1122 96a7 0ea9 afa5 63ad 632d 0334
000000f0: 5c93 77b7 cc32 019e 6323 35a2 fbb0 29a4
00000100: 41a8 3317 251f 0aa8 9929 fba2 3930 0a28
00000110: 3fa6 042d 9f24 b4aa 0921 2d2e f21c 1eb5
00000120: 81a4 8ea8 1921 c7a0 6d28 2e1d e732 e5ac
00000130: 52a8 7826 61b1 18a9 fe24 69ad 2fa9 6da0
00000140: 8ea5 dc90 f1b2 25ac 4598 0cad 7c22 102f
00000150: beb2 0ba8 132c 4baf f6a4 482c f1ac 23b6
00000160: 9131 32a9 ae31 e99f e7ad a026 a1a2 539f
00000170: 5833 2ea4 85b0 5e22 c924 8ab1 95b1 dc31
00000180: 2eaa 07ae eb28 7f2b 692a 88a4 e5ad c524
00000190: 6ba6 9ea0 6cb1 89ac 27ac 7426 a4af 17a6
000001a0: bea5 0fab c9a4 a299 0f23 2ea3 9ab1 672a
000001b0: 12a9 d11a 50a8 70a8 faa9 85a6 0cab 6a2b
000001c0: ca2e 96a8 9c1b 8921 50ad 7fa6 18b4 da94
000001d0: 19b0 7bb1 cf23 a32f 0b26 5da3 4cae e8ab
000001e0: 6ca4 6425 3fa9 cfa1 4a30 71ac 3933 bc21
000001f0: b6a7 e1b2 a4a8 79a0 4ea9 29a1 25ac 4d25

arith.constant5 f2 [32]
0.0555 0.0829 0.0635 -0.03075 -0.00423 -0.0185 -0.04477 0.1833
0.00596 0.03226 -0.02446 -0.1117 0.02303 -0.01628 -0.03293 -0.04352
0.2048 -0.011665 0.009926 0.03647 0.00852 -0.01 0.014114 -0.0735
-0.0245 -0.1387 0.0005803 0.09143 -0.002893 0.0748 0.07227 -0.10846
00000000: 1b2b 4e2d 102c dfa7 559c bca4 bba9 de31
00000010: 1a1e 2128 43a6 26af e525 2ba4 37a8 92a9
00000020: 8e32 f9a1 1521 ab28 5d20 1fa1 3a23 b4ac
00000030: 46a6 70b0 c110 da2d ed99 ca2c a02c f1ae

arith.constant6 f2 [128]
-0.00679 -0.04095 -0.02719 -0.02176 0.02652 -0.02345 -0.0364 -0.02463
-0.03165 -0.1292 -0.1355 -0.3174 -0.05618 0.4092 -0.01642 0.2683
-0.03099 -0.03577 0.003248 -0.0164 -0.2234 -0.01736 0.3005 -0.0435
-0.03207 -0.01368 0.04706 -0.03235 0.0866 -0.0372 -0.01242 -0.054
-0.02364 -0.02422 0.4014 -0.04584 -0.05344 -0.143 -0.01392 -0.1081
0.05295 -0.05 0.01375 -0.0682 -0.03009 -0.1398 0.01083 0.349
0.1399 -0.008415 -0.03943 -0.0287 -0.003326 -0.0332 -0.02768 -0.1196
-0.1278 -0.0503 -0.03983 -0.00834 -0.2285 -0.02223 -0.09705 -0.07434
-0.04495 -0.05057 -0.2268 -0.2384 -0.145 -0.03336 -0.2299 -0.006657
-0.07544 -0.0168 -0.1041 0.0581 -0.0346 -0.08203 -0.1584 -0.02637
0.0339 -0.02261 -0.03558 -0.01254 -0.00873 -0.01648 0.3845 0.0512
-0.03912 -0.00803 -0.1813 -0.006695 -0.1372 -0.1065 0.05096 0.1663
-0.1896 -0.02106 -0.03223 -0.0206 -0.2206 0.01727 -0.04443 -0.0105
-0.02284 0.1774 -0.02196 -0.137 -0.01299 -0.01845 -0.12256 -0.02122
-0.0176 -0.01298 -0.0267 -0.0154 -0.01376 0.176 -0.0488 -0.05737
-0.009056 -0.006653 -0.0633 -0.04108 -0.01267 -0.011665 -0.00815 -0.0106
00000000: f49e 3ea9 f6a6 92a5 ca26 01a6 a9a8 4ea6
00000010: 0da8 22b0 56b0 14b5 31ab 8c36 34a4 4b34
00000020: efa7 94a8 a71a 33a4 26b3 72a4 cf34 91a9
00000030: 1ba8 01a3 062a 24a8 8b2d c3a8 5ca2 e9aa
00000040: 0da6 33a6 6c36 dea9 d7aa 93b0 21a3 ebae
00000050: c72a 66aa 0a23 5dac b4a7 79b0 8c21 9635
00000060: 7a30 4fa0 0ca9 59a7 d09a 40a8 16a7 a8af
00000070: 17b0 70aa 19a9 45a0 50b3 b1a5 36ae c2ac
00000080: c1a9 79aa 42b3 a1b3 a4b0 45a8 5bb3 d19e
00000090: d4ac 4da4 aaae 702b 6ea8 40ad 12b1 c0a6
000000a0: 5728 caa5 8ea8 6ca2 78a0 38a4 2736 8e2a
000000b0: 02a9 1da0 cdb1 db9e 64b0 d1ae 862a 5231
000000c0: 11b2 64a5 20a8 46a5 0fb3 6c24 b0a9 60a1
000000d0: d9a5 ad31 9fa5 62b0 a7a2 b9a4 d8af 6fa5
000000e0: 81a4 a5a2 d6a6 e3a3 0ca3 a231 3faa 58ab
000000f0: a3a0 d09e 0dac 42a9 7da2 f9a1 2ca0 6da1

arith.constant7 f2 [128, 128]
-0.0866 -0.03247 -0.04834 -0.09155 -0.1111 0.1493 -0.0536 -0.005688
0.1016 0.0427 0.0006843 -0.166 -0.02325 -0.0802 0.03555 0.01753
0.10406 -0.0916 -0.1388 -0.07446 -0.1865 -0.01294 -0.1581 -0.03934
-0.1764 -0.02461 -0.1027 0.04175 0.04327 0.03308 0.1087 0.08264
-0.04352 0.01492 0.09406 -0.0343 0.0929 0.04816 0.1323 0.1475
0.0414 -0.04633 0.02318 0.04678 -0.0408 -0.1589 0.071 -0.0815
-0.1377 0.0952 -0.02759 0.1461 -0.1364 0.10547 -0.147 0.07153
-0.004025 0.03827 0.1482 -0.0963 -0.1855 -0.1781 -0.03333 0.1118
-0.1125 -0.0649 0.0661 -0.00985 0.03757 -0.1335 -0.04977 0.06274
-0.1364 0.0632 -0.0802 -0.0193 0.06134 -0.02917 -0.08777 0.03427
-0.1465 -0.05798 0.006046 -0.0817 -0.1128 0.0832 -0.02393 0.01382
0.04846 -0.1389 -0.1747 -0.08746 -0.1466 -0.1153 -0.1483 -0.004547
-0.1124 0.006706 0.03833 0.1458 0.0674 -0.0307 0.048 -0.1559
0.0339 0.147 -0.0887 -0.1506 0.0823 0.0914 -0.1743 -0.0138
0.033 -0.0874 -0.04303 -0.06046 -0.1438 -0.05295 -0.09546 0.001803
-0.1302 -0.1505 0.02982 -0.09656 -0.0622 -0.0444 0.001455 -0.03802
0.1262 0.3132 -0.0987 -0.0889 0.01747 0.033 -0.2793 -0.02118
0.08704 -0.01157 -0.2024 -0.04666 0.1339 -0.1428 0.0919 0.01254
-0.04807 0.1434 0.0767 0.1343 0.1259 -0.03827 0.1912 -0.02843
0.0509 -0.002417 0.03592 -0.10785 0.228 0.00965 -0.05914 -0.02553
-0.0895 0.1466 -0.0384 0.05273 0.0842 0.01764 0.01014 0.00937
0.1646 -0.07086 -0.1389 -0.02422 0.1224 -0.0645 -0.05518 -0.1553
-0.1083 0.0787 -0.26 -0.10156 0.00952 0.01374 -0.11127 -0.0676
0.1747 0.00558 -0.107 -0.0314 -0.2148 0.013885 0.04065 0.1884
-0.02391 -0.00657 -0.2028 -0.1327 -0.02626 -0.1104 0.003658 -0.07635
0.05325 0.09924 0.1382 0.0109 -0.1022 0.4294 0.0858 -0.1104
0.10364 -0.1531 0.10736 0.0781 0.03326 -0.0815 -0.015114 -0.2247
0.03873 -0.142 -0.0729 -0.03302 0.04605 -0.1471 -0.005337 -0.068
0.0748 0.1548 -0.00828 -0.04474 0.10944 0.1544 0.1721 0.0988
0.05963 -0.03394 -0.0003393 0.1307 0.05893 -0.1184 0.3062 -0.1697
0.0637 -0.1375 0.0647 -0.04633 -0.1769 -0.2378 0.005127 0.2761
-0.00603 -0.211 0.1879 0.0752 0.064 0.1009 0.01119 0.01663
00000000: 8bad 28a8 30aa dcad 1caf c730 dcaa d39d
00000010: 812e 7729 9b11 50b1 f4a5 22ad 8d28 7d24
00000020: a92e ddad 71b0 c4ac f8b1 a0a2 0fb1 09a9
00000030: a5b1 4da6 93ae 5829 8a29 3c28 f52e 4a2d
00000040: 92a9 a423 052e 64a8 f22d 2a2a 3c30 b830
00000050: 4d29 eea9 ef25 fd29 39a9 16b1 8b2c 37ad
00000060: 68b0 182e 10a7 ad30 5db0 c02e b4b0 942c
00000070: 1f9c e628 be30 2aae f0b1 b3b1 44a8 282f
00000080: 33af 27ac 3b2c 0ba1 cf28 46b0 5faa 042c
00000090: 5db0 0b2c 22ad f1a4 da2b 78a7 9ead 6328
000000a0: b0b0 6cab 311e 3bad 38af 532d 20a6 1323
000000b0: 342a 72b0 97b1 99ad b1b0 61af bfb0 a89c
000000c0: 32af de1e e828 aa30 502c dca7 252a fdb0
000000d0: 5728 b430 adad d2b0 442d d92d 94b1 11a3
000000e0: 3928 98ad 82a9 bdab 9ab0 c7aa 1cae 6317
000000f0: 2bb0 d1b0 a227 2eae f6ab afa9 f615 dea8
00000100: 0a30 0335 51ae b1ad 7924 3928 78b4 6ca5
00000110: 922d eda1 7ab2 f9a9 4930 92b0 e22d 6c22
00000120: 27aa 9730 e92c 4c30 0730 e6a8 1e32 47a7
00000130: 842a f398 9928 e7ae 4c33 f120 92ab 89a6
00000140: baad b130 eaa8 c02a 642d 8424 3121 cc20
00000150: 4431 89ac 72b0 33a6 d52f 21ac 10ab f8b0
00000160: eeae 092d 29b4 80ae e020 0923 1faf 54ac
00000170: 9731 b71d d9ae 05a8 e0b2 1c23 3429 0732
00000180: 1fa6 ba9e 7db2 3fb0 b9a6 11af 7e1b e3ac
00000190: d12a 5a2e 6c30 9521 8aae df36 7e2d 11af
000001a0: a22e e6b0 df2e 002d 4228 37ad bda3 31b3
000001b0: f528 8bb0 aaac 3aa8 e529 b5b0 779d 5aac
000001c0: ca2c f430 3da0 baa9 012f f130 8231 532e
000001d0: a22b 58a8 8f8d 2f30 8b2b 94af e634 6eb1
000001e0: 142c 66b0 242c eea9 a9b1 9cb3 401d 6b34
000001f0: 2d9e c1b2 0332 d02c 192c 752e bb21 4224

arith.constant8 f2 [10, 128]
0.03973 -0.08966 0.1733 -0.0217 -0.6304 -0.134 -0.0746 0.0826
0.1738 -0.1675 -0.177 0.02547 0.06726 -0.3213 -0.0477 -0.1487
0.1245 0.03833 0.1068 -0.0372 -0.2087 0.003998 -0.543 0.2213
-0.2654 -0.2888 -0.2407 -0.10095 -0.263 0.02277 0.11646 -0.0447
-0.601 -0.1497 -0.1785 -0.511 -0.0681 0.1134 -0.1901 -0.5767
0.1294 0.00803 -0.11084 0.1039 -0.3997 0.06854 0.00973 0.0413
-0.1063 -0.295 -0.1824 -0.279 0.03412 0.15 -0.3396 -0.133
0.1736 -0.08136 0.1217 -0.2223 0.02107 0.09357 -0.0379 0.1371
0.1189 -0.2798 0.10675 0.02599 -0.02853 -0.5947 0.08075 -0.5103
-0.7554 -0.2228 0.1964 0.127 -0.05997 0.241 0.1416 -0.0943
-0.4502 0.01254 0.1775 0.1389 0.06104 -0.1931 0.2756 0.03363
0.253 0.0949 -0.4424 -0.611 -0.02107 -0.03114 -0.008316 -0.1074
-0.2317 0.1694 0.03128 -0.2261 -0.1807 -0.2793 0.02544 -0.26
-0.3953 -0.12354 -0.0888 0.1526 0.2112 -0.1786 0.1465 -0.3906
-0.9014 0.1327 0.128 -0.5703 -0.4421 -0.12134 0.1296 0.05
0.1584 -0.4666 0.02415 -0.04257 0.1081 -0.02179 -0.1184 0.07635
0.1321 0.1444 -0.297 -0.388 -0.1427 0.4417 -0.02002 0.422
-0.119 -0.1816 0.1389 0.02834 0.02711 -0.2798 -0.02931 -0.1968
-0.0325 -0.1912 -0.4368 0.1804 -0.3188 -0.1647 0.2915 -0.515
0.0556 -0.06433 -0.1232 0.08826 0.1418 0.1741 0.1263 -0.4866
0.2291 -0.013374 -0.1816 0.188 -0.1283 -0.02045 -0.1924 -0.3127
0.09686 0.1873 -0.08527 0.1403 0.1833 0.11084 -0.1981 0.014694
-0.1561 0.1376 -0.03912 0.1919 -0.03668 -0.09033 -0.133 0.2141
-0.02988 -0.1007 -0.317 0.0438 0.09814 0.1259 -0.4705 -0.05002
-0.0674 0.04706 -0.0664 -0.05328 0.0987 0.0671 0.1832 -0.0603
0.0753 -0.3938 -0.267 -0.2129 -0.14 0.01965 -0.3828 0.0402
0.293 0.02666 0.1039 -0.05817 -0.0318 -0.1531 -0.2124 -0.1628
-0.3333 -0.0896 0.1625 -0.4917 -0.1765 -0.786 -0.02385 -0.1702
-0.5747 -0.4097 0.01105 0.1346 0.1266 -0.06396 -0.00102 0.1788
-0.1831 -0.11456 -0.2407 -0.2832 -0.3867 0.0467 -0.1237 0.1996
0.1381 -0.01261 -0.10864 0.2205 -0.1868 0.4119 0.1239 0.0925
0.1942 -0.186 -0.1923 0.0972 0.03192 0.3535 0.0696 0.1288
00000000: 1629 bdad 8c31 8ea5 0bb9 4ab0 c6ac 492d
00000010: 9031 5cb1 aab1 8526 4e2c 24b5 1baa c2b0
00000020: f82f e828 d62e c3a8 aeb2 181c 58b8 1533
00000030: 3fb4 9fb4 b4b3 76ae 35b4 d425 742f b9a9
00000040: cfb8 cab0 b6b1 17b8 5cac 422f 15b2 9db8
00000050: 2430 1d20 18af a62e 65b6 632c fb20 4929
00000060: ceae b8b4 d6b1 77b4 5e28 cd30 6fb5 42b0
00000070: 8e31 35ad ca2f 1db3 6525 fd2d daa8 6330
00000080: 9c2f 7ab4 d52e a726 4ea7 c2b8 2b2d 15b8
00000090: 0bba 21b3 4932 1030 adab b633 8830 09ae
000000a0: 34b7 6c22 ae31 7230 d02b 2eb2 6934 4e28
000000b0: 0c34 132e 14b7 e3b8 65a5 f9a7 42a0 e0ae
000000c0: 6ab3 6c31 0128 3cb3 c8b1 78b4 8326 29b4
000000d0: 53b6 e8af afad e230 c232 b7b1 b030 40b6
000000e0: 36bb 3f30 1930 90b8 13b7 c4af 2630 662a
000000f0: 1231 77b7 2f26 73a9 eb2e 94a5 94af e32c
00000100: 3a30 9f30 c1b4 35b6 91b0 1137 20a5 c136
00000110: 9eaf d0b1 7230 4127 f126 7ab4 81a7 4cb2
00000120: 29a8 1eb2 fdb6 c631 1ab5 45b1 aa34 1fb8
00000130: 1e2b 1eac e3af a62d 8a30 9231 0b30 c9b7
00000140: 5533 d9a2 d0b1 0432 1bb0 3ca5 28b2 01b5
00000150: 332e fe31 75ad 7d30 de31 182f 57b2 8623
00000160: ffb0 6730 02a9 2432 b2a8 c8ad 42b0 da32
00000170: a6a7 72ae 12b5 9b29 482e 0730 87b7 67aa
00000180: 50ac 062a 40ac d2aa 512e 4b2c dd31 b8ab
00000190: d22c 4db6 46b4 d0b2 7bb0 0825 20b6 2529
000001a0: b034 d326 a62e 72ab 12a8 e6b0 ccb2 36b1
000001b0: 55b5 bcad 3331 deb7 a6b1 4aba 1ba6 72b1
000001c0: 99b8 8eb6 a821 4f30 0d30 18ac 2e94 b931
000001d0: dcb1 55af b4b3 88b4 30b6 fa29 ebaf 6332
000001e0: 6b30 75a2 f4ae 0e33 fab1 9736 ee2f ec2d
000001f0: 3732 f4b1 27b2 392e 1628 a835 742c 1f30

arith.constant9 f2 [10]
0.07166 0.03998 0.2144 0.006866 -0.2664 -0.04596 0.03387 0.04532
-0.1794 -0.01022
00000000: 962c 1e29 dc32 081f 43b4 e2a9 5628 cd29
00000010: beb1 3ca1

arith.constant10 f2 [128]
-0.0397 0.02658 0.1037 0.1139 0.1257 0.00667 0.002039 0.0966
0.01226 0.0961 0.0689 -0.06665 0.1678 0.0834 -0.0713 -0.04245
-0.02611 0.10236 0.1165 -0.0264 0.159 -0.03946 -0.03024 -0.01195
0.03705 -0.1643 0.07104 -0.03952 -0.2231 -0.01163 0.05542 0.0924
0.1355 -0.05933 0.02127 0.0726 -0.04007 0.00605 -0.04718 0.1783
0.05396 -0.04468 0.1152 -0.0537 -0.013954 -0.03958 -0.01996 -0.04282
-0.01787 0.1752 0.1019 -0.002563 0.01079 -0.03888 0.0182 -0.08374
-0.015045 -0.02838 0.1153 -0.05322 -0.0699 -0.04578 0.07434 0.0661
-0.1228 -0.01765 -0.01917 -0.0356 -0.1122 -0.03812 0.0633 0.008385
0.04126 0.01634 -0.02167 -0.01944 0.03644 0.04532 0.2019 -0.1092
0.1388 -0.004242 -0.01997 0.00716 -0.0184 -0.04636 0.03677 -0.04294
0.02257 -0.03638 -0.1188 0.12213 -0.0661 -0.0313 0.06024 0.07074
0.21 0.1108 -0.02617 0.06915 -0.02328 0.0808 0.03165 -0.0985
-0.09235 0.02194 0.0696 -0.06696 0.03032 -0.0319 0.03592 0.08295
0.1699 0.1888 0.03772 0.1505 0.08307 0.207 0.07153 -0.035
0.10114 0.1573 -0.04413 -0.04593 -0.05554 0.01351 -0.01855 -0.0527
00000000: 15a9 ce26 a32e 4a2f 0630 d51e 2d18 2f2e
00000010: 4722 272e 692c 44ac 5f31 562d 90ac 6fa9
00000020: afa6 8d2e 752f c2a6 1731 0da9 bea7 1ea2
00000030: be28 42b1 8c2c 0fa9 24b3 f4a1 182b ea2d
00000040: 5630 98ab 7225 a52c 21a9 321e 0aaa b531
00000050: e82a b8a9 5f2f e0aa 25a3 11a9 1ca5 7ba9
00000060: 93a4 9b31 862e 4099 8621 faa8 a924 5cad
00000070: b4a3 44a7 612f d0aa 79ac dca9 c22c 3b2c
00000080: dcaf 85a4 e8a4 8fa8 2eaf e1a8 0d2c 4b20
00000090: 4829 2f24 8ca5 faa4 aa28 cd29 7632 fdae
000000a0: 7130 589c 1da5 551f b6a4 efa9 b528 7fa9
000000b0: c725 a8a8 9aaf d12f 3bac 02a8 b62b 872c
000000c0: b832 172f b3a6 6d2c f6a5 2c2d 0d28 4eae
000000d0: e9ad 9e25 742c 49ac c327 15a8 9928 4f2d
000000e0: 7031 0b32 d428 d130 512d a032 942c 7ba8
000000f0: 792e 0931 a6a9 e1a9 1cab eb22 c0a4 bfaa
